11/02 01:19:31 PM 3
11/02 01:19:31 PM 0
11/02 01:19:31 PM 0
11/02 01:19:31 PM 1
11/02 01:19:31 PM 1
11/02 01:19:31 PM 2
11/02 01:19:31 PM 1
11/02 01:19:31 PM 3
11/02 01:19:31 PM 3
11/02 01:19:31 PM 3
11/02 02:12:54 PM Best Top1 : 0.9035999178886414
----------------------------------------------------------------
        Layer (type)               Output Shape         Param #
================================================================
            Conv2d-1            [1, 12, 18, 18]             336
       BatchNorm2d-2            [1, 12, 18, 18]              24
              ReLU-3            [1, 12, 18, 18]               0
         FirstUnit-4            [1, 12, 18, 18]               0
            Conv2d-5             [1, 6, 18, 18]              72
       BatchNorm2d-6             [1, 6, 18, 18]              12
              ReLU-7             [1, 6, 18, 18]               0
            Conv2d-8             [1, 6, 18, 18]              54
            Conv2d-9             [1, 3, 18, 18]               3
           Conv2d-10             [1, 3, 18, 18]               3
           Conv2d-11             [1, 3, 18, 18]               3
           Conv2d-12             [1, 3, 18, 18]               9
        GroupConv-13            [1, 12, 18, 18]               0
      BatchNorm2d-14            [1, 12, 18, 18]              24
             ReLU-15            [1, 24, 18, 18]               0
         ConvUnit-16            [1, 24, 18, 18]               0
           Conv2d-17            [1, 12, 18, 18]             288
      BatchNorm2d-18            [1, 12, 18, 18]              24
             ReLU-19            [1, 12, 18, 18]               0
           Conv2d-20            [1, 12, 18, 18]             108
           Conv2d-21            [1, 24, 18, 18]             288
        GroupConv-22            [1, 24, 18, 18]               0
      BatchNorm2d-23            [1, 24, 18, 18]              48
             ReLU-24            [1, 24, 18, 18]               0
         ConvUnit-25            [1, 24, 18, 18]               0
           Conv2d-26            [1, 12, 18, 18]             288
      BatchNorm2d-27            [1, 12, 18, 18]              24
             ReLU-28            [1, 12, 18, 18]               0
           Conv2d-29            [1, 12, 18, 18]             108
           Conv2d-30            [1, 24, 18, 18]             288
        GroupConv-31            [1, 24, 18, 18]               0
      BatchNorm2d-32            [1, 24, 18, 18]              48
             ReLU-33            [1, 48, 18, 18]               0
         ConvUnit-34            [1, 48, 18, 18]               0
           Conv2d-35            [1, 24, 18, 18]           1,152
      BatchNorm2d-36            [1, 24, 18, 18]              48
             ReLU-37            [1, 24, 18, 18]               0
           Conv2d-38            [1, 24, 18, 18]             216
           Conv2d-39            [1, 24, 18, 18]             288
           Conv2d-40            [1, 24, 18, 18]             288
        GroupConv-41            [1, 48, 18, 18]               0
      BatchNorm2d-42            [1, 48, 18, 18]              96
             ReLU-43            [1, 48, 18, 18]               0
         ConvUnit-44            [1, 48, 18, 18]               0
           Conv2d-45            [1, 24, 18, 18]           1,152
      BatchNorm2d-46            [1, 24, 18, 18]              48
             ReLU-47            [1, 24, 18, 18]               0
           Conv2d-48            [1, 24, 18, 18]             216
           Conv2d-49            [1, 24, 18, 18]             288
           Conv2d-50            [1, 24, 18, 18]             288
        GroupConv-51            [1, 48, 18, 18]               0
      BatchNorm2d-52            [1, 48, 18, 18]              96
             ReLU-53            [1, 96, 18, 18]               0
         ConvUnit-54            [1, 96, 18, 18]               0
           Conv2d-55            [1, 48, 18, 18]           4,608
      BatchNorm2d-56            [1, 48, 18, 18]              96
             ReLU-57            [1, 48, 18, 18]               0
           Conv2d-58            [1, 48, 18, 18]             432
           Conv2d-59            [1, 32, 18, 18]             512
           Conv2d-60            [1, 32, 18, 18]             512
           Conv2d-61            [1, 32, 18, 18]             512
        GroupConv-62            [1, 96, 18, 18]               0
      BatchNorm2d-63            [1, 96, 18, 18]             192
             ReLU-64            [1, 96, 18, 18]               0
         ConvUnit-65            [1, 96, 18, 18]               0
           Conv2d-66            [1, 48, 18, 18]           4,608
      BatchNorm2d-67            [1, 48, 18, 18]              96
             ReLU-68            [1, 48, 18, 18]               0
           Conv2d-69            [1, 48, 18, 18]             432
           Conv2d-70            [1, 48, 18, 18]           1,152
           Conv2d-71            [1, 48, 18, 18]           1,152
        GroupConv-72            [1, 96, 18, 18]               0
      BatchNorm2d-73            [1, 96, 18, 18]             192
             ReLU-74           [1, 192, 18, 18]               0
         ConvUnit-75           [1, 192, 18, 18]               0
           Conv2d-76            [1, 96, 18, 18]          18,432
      BatchNorm2d-77            [1, 96, 18, 18]             192
             ReLU-78            [1, 96, 18, 18]               0
           Conv2d-79            [1, 96, 18, 18]             864
           Conv2d-80            [1, 48, 18, 18]           1,152
           Conv2d-81            [1, 48, 18, 18]           1,152
           Conv2d-82            [1, 48, 18, 18]           1,152
           Conv2d-83            [1, 48, 18, 18]           1,152
        GroupConv-84           [1, 192, 18, 18]               0
      BatchNorm2d-85           [1, 192, 18, 18]             384
             ReLU-86           [1, 192, 18, 18]               0
         ConvUnit-87           [1, 192, 18, 18]               0
           Conv2d-88            [1, 96, 18, 18]          18,432
      BatchNorm2d-89            [1, 96, 18, 18]             192
             ReLU-90            [1, 96, 18, 18]               0
           Conv2d-91            [1, 96, 18, 18]             864
           Conv2d-92            [1, 48, 18, 18]           1,152
           Conv2d-93            [1, 48, 18, 18]           1,152
           Conv2d-94            [1, 48, 18, 18]           1,152
           Conv2d-95            [1, 48, 18, 18]           1,152
        GroupConv-96           [1, 192, 18, 18]               0
      BatchNorm2d-97           [1, 192, 18, 18]             384
             ReLU-98           [1, 384, 18, 18]               0
         ConvUnit-99           [1, 384, 18, 18]               0
          Conv2d-100           [1, 192, 18, 18]          73,728
     BatchNorm2d-101           [1, 192, 18, 18]             384
            ReLU-102           [1, 192, 18, 18]               0
          Conv2d-103           [1, 192, 18, 18]           1,728
          Conv2d-104            [1, 96, 18, 18]           4,608
          Conv2d-105            [1, 96, 18, 18]           4,608
          Conv2d-106            [1, 96, 18, 18]           4,608
          Conv2d-107            [1, 96, 18, 18]           4,608
       GroupConv-108           [1, 384, 18, 18]               0
     BatchNorm2d-109           [1, 384, 18, 18]             768
            ReLU-110           [1, 384, 18, 18]               0
        ConvUnit-111           [1, 384, 18, 18]               0
         Flatten-112                   [1, 384]               0
          Linear-113                    [1, 10]           3,850
        LastUnit-114                    [1, 10]               0
================================================================
Total params: 168,574
Trainable params: 168,574
Non-trainable params: 0
----------------------------------------------------------------
Input size (MB): 0.01
Forward/backward pass size (MB): 21.27
Params size (MB): 0.64
Estimated Total Size (MB): 21.93
----------------------------------------------------------------
Count Operations in random tensor
…
