…
11/02 08:38:10 PM Top1 Accuracy is : 0.6672270894050598
11/02 08:38:26 PM Epoch:[199/200] | Train Loss: 0.0547 | top1: 0.9952 | top5: 1.0000
11/02 08:38:27 PM Top1 Accuracy is : 0.6662381291389465
11/02 08:38:43 PM Epoch:[200/200] | Train Loss: 0.0553 | top1: 0.9954 | top5: 1.0000
11/02 08:38:45 PM Top1 Accuracy is : 0.6666337251663208
11/02 08:38:45 PM Best Top1 : 0.6696004867553711
----------------------------------------------------------------
        Layer (type)               Output Shape         Param #
================================================================
            Conv2d-1            [1, 12, 18, 18]             336
       BatchNorm2d-2            [1, 12, 18, 18]              24
              ReLU-3            [1, 12, 18, 18]               0
         FirstUnit-4            [1, 12, 18, 18]               0
            Conv2d-5             [1, 6, 18, 18]              72
       BatchNorm2d-6             [1, 6, 18, 18]              12
              ReLU-7             [1, 6, 18, 18]               0
            Conv2d-8             [1, 6, 18, 18]              54
            Conv2d-9            [1, 12, 18, 18]              72
        GroupConv-10            [1, 12, 18, 18]               0
      BatchNorm2d-11            [1, 12, 18, 18]              24
             ReLU-12            [1, 24, 18, 18]               0
         ConvUnit-13            [1, 24, 18, 18]               0
           Conv2d-14            [1, 12, 18, 18]             288
      BatchNorm2d-15            [1, 12, 18, 18]              24
             ReLU-16            [1, 12, 18, 18]               0
           Conv2d-17            [1, 12, 18, 18]             108
           Conv2d-18             [1, 8, 18, 18]              32
           Conv2d-19             [1, 8, 18, 18]              32
           Conv2d-20             [1, 8, 18, 18]              32
        GroupConv-21            [1, 24, 18, 18]               0
      BatchNorm2d-22            [1, 24, 18, 18]              48
             ReLU-23            [1, 24, 18, 18]               0
         ConvUnit-24            [1, 24, 18, 18]               0
           Conv2d-25            [1, 12, 18, 18]             288
      BatchNorm2d-26            [1, 12, 18, 18]              24
             ReLU-27            [1, 12, 18, 18]               0
           Conv2d-28            [1, 12, 18, 18]             108
           Conv2d-29             [1, 8, 18, 18]              32
           Conv2d-30             [1, 8, 18, 18]              32
           Conv2d-31             [1, 8, 18, 18]              32
        GroupConv-32            [1, 24, 18, 18]               0
      BatchNorm2d-33            [1, 24, 18, 18]              48
             ReLU-34            [1, 48, 18, 18]               0
         ConvUnit-35            [1, 48, 18, 18]               0
           Conv2d-36            [1, 24, 18, 18]           1,152
      BatchNorm2d-37            [1, 24, 18, 18]              48
             ReLU-38            [1, 24, 18, 18]               0
           Conv2d-39            [1, 24, 18, 18]             216
           Conv2d-40            [1, 16, 18, 18]             128
           Conv2d-41            [1, 16, 18, 18]             128
           Conv2d-42            [1, 16, 18, 18]             128
        GroupConv-43            [1, 48, 18, 18]               0
      BatchNorm2d-44            [1, 48, 18, 18]              96
             ReLU-45            [1, 48, 18, 18]               0
         ConvUnit-46            [1, 48, 18, 18]               0
           Conv2d-47            [1, 24, 18, 18]           1,152
      BatchNorm2d-48            [1, 24, 18, 18]              48
             ReLU-49            [1, 24, 18, 18]               0
           Conv2d-50            [1, 24, 18, 18]             216
           Conv2d-51            [1, 24, 18, 18]             288
           Conv2d-52            [1, 24, 18, 18]             288
        GroupConv-53            [1, 48, 18, 18]               0
      BatchNorm2d-54            [1, 48, 18, 18]              96
             ReLU-55            [1, 96, 18, 18]               0
         ConvUnit-56            [1, 96, 18, 18]               0
           Conv2d-57            [1, 48, 18, 18]           4,608
      BatchNorm2d-58            [1, 48, 18, 18]              96
             ReLU-59            [1, 48, 18, 18]               0
           Conv2d-60            [1, 48, 18, 18]             432
           Conv2d-61            [1, 48, 18, 18]           1,152
           Conv2d-62            [1, 48, 18, 18]           1,152
        GroupConv-63            [1, 96, 18, 18]               0
      BatchNorm2d-64            [1, 96, 18, 18]             192
             ReLU-65            [1, 96, 18, 18]               0
         ConvUnit-66            [1, 96, 18, 18]               0
           Conv2d-67            [1, 48, 18, 18]           4,608
      BatchNorm2d-68            [1, 48, 18, 18]              96
             ReLU-69            [1, 48, 18, 18]               0
           Conv2d-70            [1, 48, 18, 18]             432
           Conv2d-71            [1, 48, 18, 18]           1,152
           Conv2d-72            [1, 48, 18, 18]           1,152
        GroupConv-73            [1, 96, 18, 18]               0
      BatchNorm2d-74            [1, 96, 18, 18]             192
             ReLU-75           [1, 192, 18, 18]               0
         ConvUnit-76           [1, 192, 18, 18]               0
           Conv2d-77            [1, 96, 18, 18]          18,432
      BatchNorm2d-78            [1, 96, 18, 18]             192
             ReLU-79            [1, 96, 18, 18]               0
           Conv2d-80            [1, 96, 18, 18]             864
           Conv2d-81            [1, 64, 18, 18]           2,048
           Conv2d-82            [1, 64, 18, 18]           2,048
           Conv2d-83            [1, 64, 18, 18]           2,048
        GroupConv-84           [1, 192, 18, 18]               0
      BatchNorm2d-85           [1, 192, 18, 18]             384
             ReLU-86           [1, 192, 18, 18]               0
         ConvUnit-87           [1, 192, 18, 18]               0
           Conv2d-88            [1, 96, 18, 18]          18,432
      BatchNorm2d-89            [1, 96, 18, 18]             192
             ReLU-90            [1, 96, 18, 18]               0
           Conv2d-91            [1, 96, 18, 18]             864
           Conv2d-92            [1, 48, 18, 18]           1,152
           Conv2d-93            [1, 48, 18, 18]           1,152
           Conv2d-94            [1, 48, 18, 18]           1,152
           Conv2d-95            [1, 48, 18, 18]           1,152
        GroupConv-96           [1, 192, 18, 18]               0
      BatchNorm2d-97           [1, 192, 18, 18]             384
             ReLU-98           [1, 384, 18, 18]               0
         ConvUnit-99           [1, 384, 18, 18]               0
          Conv2d-100           [1, 192, 18, 18]          73,728
     BatchNorm2d-101           [1, 192, 18, 18]             384
            ReLU-102           [1, 192, 18, 18]               0
          Conv2d-103           [1, 192, 18, 18]           1,728
          Conv2d-104            [1, 96, 18, 18]           4,608
          Conv2d-105            [1, 96, 18, 18]           4,608
          Conv2d-106            [1, 96, 18, 18]           4,608
          Conv2d-107            [1, 96, 18, 18]           4,608
       GroupConv-108           [1, 384, 18, 18]               0
     BatchNorm2d-109           [1, 384, 18, 18]             768
            ReLU-110           [1, 384, 18, 18]               0
        ConvUnit-111           [1, 384, 18, 18]               0
         Flatten-112                   [1, 384]               0
          Linear-113                   [1, 100]          38,500
        LastUnit-114                   [1, 100]               0
================================================================
Total params: 205,006
Trainable params: 205,006
Non-trainable params: 0
----------------------------------------------------------------
Input size (MB): 0.01
Forward/backward pass size (MB): 21.27
Params size (MB): 0.78
Estimated Total Size (MB): 22.07
----------------------------------------------------------------
Count Operations in random tensor
…
